lenet.pth (torch, 288622 bytes, 20 tensors)

layer1.0.weight f4 [16, 1, 5, 5]
00000000: 3a4b 0d3e d23f 963c a7cd 613e 7bf5 633c
00000010: d9a2 4c3d e650 2d3e f750 2c3e bdc1 1d3d
00000020: cbfa 9f3d a9cb 53bd 3c2a 613d c983 483c
00000030: 948a 393d 3ed5 26be acd3 d9bd 00f7 dd3d
00000040: 3147 a13d 6bfc 5dbc baf6 f73d 1b05 fcbd
00000050: be9c 763d bd47 423e 206d 3abe cf87 43be
00000060: eb8c f6b9 f72c 73bb d4df 90bd f159 a53d
00000070: 86fc c83d 0183 d33d eb4c 94bd efa7 7a3d
00000080: 0104 0d3e fdf0 143e d625 453e 3864 21be
00000090: 468f 933c ccca 0f3e 7174 133e dda8 0fbe
000000a0: 7604 34be 939d 123e 85f4 27be 5bdd b0bd
000000b0: b2e9 13be 6b0c 11be 7c36 35be 5ef6 f23d
000000c0: 9a35 44be 7859 173c df2c 5abc aaeb c43d
000000d0: 31a4 a83c 59ac 33be 013d 853c c13c 493e
000000e0: 47e4 283e 2678 a8ba e371 d2bc 0d3b 933d
000000f0: 9c07 0fbd 5f58 783d 0fdf 2abd bb77 cc3d
00000100: b6ef efbd 036f 4d3e fb35 aabd 71d9 02be
00000110: 30bd 283e e597 39be 3766 aabc 9ef3 0cbe
00000120: 7a0c f8bc 7617 22be 46af cdbd 71ce 0e3e
00000130: 128e a53d 2c57 033e b158 503e cff5 3f3e
00000140: bc30 a33d b643 d43d 381d 84bb 73f9 9e3d
00000150: 00ef 7d3d 490d efbd 6be0 313e 370d 18bd
00000160: 5eea bebd 1302 c83c 6b7b 063d e344 2fbe
00000170: 77f5 c2bd b74b 353e 4e39 07be 8f8c 1c3e
00000180: 6f11 e53d 3c65 723d 57ec d2bd 4719 ec3d
00000190: 20ec 3ebc fa5e 3d3e 32a1 453e e204 c2bc
000001a0: ac33 17bc 5ebb dcbd 9397 603b 4f0f 503e
000001b0: 2463 3d3e 5030 bb3d 83f6 773d 183b 523d
000001c0: ab51 afbd bf0d 613e 015d 533e 3801 8d3d
000001d0: 9dc5 843d 24ca 0c3e 434c f9bd 86c0 95bd
000001e0: 3f93 3dbe 819d 853d 3e63 5bbc 37a7 2b3e
000001f0: baf0 35be 5025 4a3e 4d98 e63b 32a1 033d
00000200: acac 2d3e ff99 2dbe 8d77 bbbc 32b5 4dbe
00000210: 58d9 c03d 9286 40be 1af1 d9bc 22c2 4dbe
00000220: 2e49 b53c 76fe af3d 1c85 143e afe9 583d
00000230: f946 473e f83c f53d 81d7 20be 4290 46be
00000240: 6cee 13bc 02fb e2b9 b4d8 12bd a5ec 9c3d
00000250: 7ceb 97bd c299 42bd fbf9 323e d18d 3d3d
00000260: 852b 693e bd9c 423e 6a1f 1e3e a1de d6bc
00000270: 8c62 9e3d fdd6 10ba 22dc e23d 7dab eebd
00000280: 0f10 2cbe 4881 3bbe b415 d23d 643f 963d
00000290: 7530 5f3e f3e6 d73c c22a 853c a7aa e83c
000002a0: 1fd5 123e b551 1fbe 27ba 753d dd75 33be
000002b0: bfbb 9cbd f56a 713d 12b3 9abd 59b5 47be
000002c0: c612 6bbc 46ed 54be 6916 47be 80e8 783c
000002d0: b180 873c d8ea ffbd 20d4 4f3d 47f1 c43c
000002e0: 7906 bbbb 1847 273d e661 b83c b2e2 f03d
000002f0: 6b94 4a3e 01b7 593e e42d 86bd 0feb 643e
00000300: 3a10 e93c 8452 843d abf8 01be 0d2d 10be
00000310: 9def 373d 804f c03d 8ba4 c53d a17b 84bd
00000320: c0a1 24be 4c88 2e3e 63c3 ed3d 044b b9bd
00000330: 7917 f6bd 6655 cc3d 4613 29bd 02f1 cfbd
00000340: a4cf 1bbd c3cc 613d 73ec 2f3e 9fc8 cfbd
00000350: 023f 4fbe 81b6 4ebe 3375 bf3d 11f6 dc3d
00000360: a371 593e a5fa d5bd f362 3abd dc4b 423c
00000370: 3e6b 243e 13b7 183e 6864 983d ab20 17be
00000380: a370 203c 201a 30be 2628 3ebd 18c5 353e
00000390: 86ba f63d 9b38 03be 3afb 893d 625e 563d
000003a0: b1d5 243e edf2 473e 4bec d83c 9357 033e
000003b0: 74d7 043e 7819 393e 15d7 033d a046 02be
000003c0: 57f5 de3d 9e9e f0bd e72d 4d3e 8f8a 2b3e
000003d0: d685 3e3e a843 793d 6ac8 41be ead8 0f3d
000003e0: d2de 863d 184b 44bd 224d 4a3d 5c56 d23d
000003f0: 9239 dfbd 5ba4 bebd 5f27 33bc 91e4 4d3e
0.13798228 0.018340979 0.22051106 0.013913508 0.04995999 0.16925392 0.1682776 0.03851484
0.07811507 -0.051707897 0.05497192 0.012238451 0.045298174 -0.16292283 -0.10636076 0.10838127
0.07874907 -0.013548951 0.12107606 -0.12305661 0.060208075 0.18972678 -0.1820569 -0.19094776
-0.00047025768 -0.0037105659 -0.07073942 0.080737956 0.0981379 0.103277214 -0.072412334 0.06119531
0.13771059 0.14545055 0.19252715 -0.15760887 0.018012654 0.14042205 0.14399888 -0.1402926
-0.17579827 0.14317922 -0.1640187 -0.0863597 -0.14444616 -0.14164893 -0.17696565 0.11863397
-0.19161072 0.00923764 -0.013316362 0.09615262 0.020586105 -0.17546214 0.01626444 0.19652082
0.16493331 -0.001285319 -0.025689071 0.071889974 -0.034919366 0.060631152 -0.04171663 0.09983774
-0.11715643 0.20061879 -0.08311077 -0.1277826 0.1647842 -0.1812435 -0.020800693 -0.13764808
-0.030279387 -0.15829262 -0.100431964 0.13945939 0.080837384 0.12826222 0.20346333 0.18746112
0.0796828 0.10364477 -0.0040318035 0.077624224 0.061995506 -0.11672456 0.17370765 -0.037121978
-0.09322046 0.024415052 0.032832544 -0.17116122 -0.09519475 0.17704664 -0.13205454 0.15287994
0.11184966 0.059178576 -0.102989845 0.11528259 -0.011652976 0.18493262 0.19299772 -0.023683969
-0.009228628 -0.10777925 0.0034270033 0.2031834 0.1849485 0.09140074 0.060537826 0.051325887
-0.08560499 0.219779 0.20640947 0.06884998 0.06483004 0.13748986 -0.12172749 -0.073121116
-0.18513201 0.06524182 -0.01339036 0.16763006 -0.17767611 0.19740796 0.0070371986 0.03213615
0.169604 -0.16953276 -0.022884155 -0.20088652 0.09416455 -0.18801335 -0.026604224 -0.20093587
0.022129621 0.085934564 0.14503902 0.052957233 0.19460668 0.119745195 -0.15707208 -0.19390967
-0.009029012 -0.00043293094 -0.035851195 0.07662324 -0.07417962 -0.047509916 0.17478172 0.046277825
0.22770508 0.19005103 0.15441671 -0.026229205 0.0773364 -0.00055252 0.11077143 -0.116538025
-0.16803001 -0.18311036 0.10258046 0.073363096 0.21795829 0.026355242 0.01625574 0.028401686
0.14339112 -0.15558513 0.05999198 -0.1752543 -0.07652997 0.058939893 -0.07553686 -0.19502772
-0.014347738 -0.20793638 -0.19442143 0.015192151 0.016540857 -0.12495965 0.050739408 0.024040831
-0.0057075587 0.040839285 0.02250762 0.11761989 0.1978318 0.21261217 -0.06551722 0.22355293
0.02845012 0.06461051 -0.12692516 -0.14079686 0.044906247 0.093901634 0.09650525 -0.06468893
-0.16077328 0.1704418 0.11609533 -0.09047511 -0.12016196 0.09977226 -0.041278146 -0.101533905
-0.03803982 0.055126917 0.17180042 -0.10145687 -0.2023888 -0.20186807 0.09348526 0.10789121
0.21234755 -0.10448197 -0.04550452 0.011858907 0.16056535 0.14913587 0.07441026 -0.14758556
0.00979248 -0.17197466 -0.046425007 0.17750967 0.12047295 -0.12814562 0.06737371 0.052336104
0.16097142 0.19526263 0.02647986 0.12826376 0.12972814 0.18076122 0.03218754 -0.12722254
0.108866386 -0.11749004 0.20037042 0.16752075 0.18605742 0.060855538 -0.18924108 0.035118975
0.06585468 -0.047923177 0.049389966 0.10270378 -0.108996525 -0.09308692 -0.01093468 0.20106722

layer1.0.bias f4 [16]
00000000: 977d c6bc 7b9a 1cbe 7b10 e8bd 9368 1fbe
00000010: 4cfa 88bd 22f7 863d ea5a 1cbe f6f8 eebc
00000020: 7352 2abe 1383 ecbd c7b6 c93c 5bb1 ecbd
00000030: 29c8 cf3d 7132 3e3e 82b3 34be 6e84 dcbd
-0.024229808 -0.15293305 -0.113312684 -0.15567236 -0.06688365 0.065901056 -0.15269056 -0.029171448
-0.16633014 -0.11548438 0.024623288 -0.11557265 0.101455994 0.1857393 -0.17646602 -0.107674465

layer1.1.weight f4 [16]
00000000: a964 833f aac3 813f 3539 813f 6294 833f
00000010: aedc 823f 5a17 803f ffea 823f 5d76 833f
00000020: b2da 813f 5edd 813f bc01 813f 2a27 833f
00000030: 2108 843f 1e20 843f 3f5c 813f d678 833f
1.0265094 1.0137837 1.0095583 1.0279658 1.0223596 1.0007126 1.0227965 1.0270497
1.0144866 1.0145681 1.0078654 1.0246327 1.0314981 1.0322301 1.0106276 1.0271251

layer1.1.bias f4 [16]
00000000: 91b9 883b a958 473b 70b3 20ba 86b0 f53b
00000010: 87f4 be3b a295 273a 4441 8c3b 3c02 893a
00000020: 978f c4b9 9322 443b a029 da3a f27f b33b
00000030: 9f3a e93b dd58 7f3b 7446 c3ba 0a2b c03a
0.004172512 0.0030417836 -0.0006130254 0.00749785 0.00582749 0.00063928415 0.004280241 0.0010452936
-0.00037491016 0.0029927834 0.0016644485 0.0054778988 0.007117584 0.0038962879 -0.0014898316 0.0014661264

layer1.1.running_mean f4 [16]
00000000: 780f aa3c 5c5e 5abe 0caa 2bbe 3a64 babd
00000010: 8950 0a3c 4661 a33c 3e1c 0bbe bed4 77bd
00000020: dd53 2fbe b9d8 443c a2cb 41bd baa3 b4bd
00000030: 0f14 253e be7a 273e b52a 39be ef09 09be
0.02075933 -0.21325058 -0.16764086 -0.09101148 0.008442053 0.019943845 -0.13584992 -0.06050562
-0.17121835 0.012014561 -0.04731334 -0.08820291 0.16120933 0.16355416 -0.18082698 -0.13382696

layer1.1.running_var f4 [16]
00000000: 97ae 303d f3f1 2f3d e9bf e23c 0246 003d
00000010: be19 5d3d 70be 353c 85e2 f33c c3f7 b33c
00000020: 6a41 f53c 8337 ab3d 5923 0e3d 3754 f53c
00000030: 55de 3e3d 9287 a83c 3d59 7c3c 4b36 b53c
0.04313525 0.04295535 0.0276794 0.031316765 0.053979628 0.011092767 0.029771099 0.021968728
0.029938418 0.083601974 0.03470168 0.029947383 0.04659875 0.020572457 0.015402135 0.022120615

layer2.0.weight f4 [32, 16, 5, 5]
00000000: e5e8 0e3c 030d e03c ebc5 b53c ef9b 6dbc
00000010: d7e0 92bc b31b 293d ad76 e73b fa91 803c
00000020: 1668 0f3d b66c 153d 4134 403d df75 43bd
00000030: 3fe4 323b ae2d 113d 8a0c b73b 08bb a5bc
00000040: f364 19bd 53a1 263d 7878 5cbd 5447 cb3b
00000050: 1af3 733c 7db8 8eba ecf9 0dbd 2024 3c3b
00000060: 1358 00bd c333 d2bc 0228 b53c 57e6 e43c
00000070: 6b15 443d 0529 d23b 5326 c7bb 7c80 4c3c
00000080: a591 0b3d fc05 06bc 8a14 25bc 4a56 fdbc
00000090: 970c 0fbd ab3b 48ba 6d93 9cbc 7d0c e93b
000000a0: a411 9fbc e0cc 33bd b673 c23c 04ea e03c
000000b0: 5358 cf3c 1f85 dbbc c49b 30bd aa28 3b3d
000000c0: 706c 363d 9933 21bd 5b59 e13c 2e6e ce3c
000000d0: b658 06bd 91e2 4b3d 531c 3f3c d2e9 83bc
000000e0: 7c73 b5bb c1d1 0d3c bf4a ba3c 3157 1abc
000000f0: ed62 8f3c 12fe 283d 5e0c b4bc 9dc2 2c3d
00000100: 1903 b93c 6ec8 c1bb 8408 09bd a461 26bd
00000110: c5d9 46bc 84ef 463d 7c95 ffbb d111 04bd
00000120: 30be 1e3d 84ac 9ebc 458a 15bd d323 3abd
00000130: 270b 11bd 852f 6c3c a48c 063d 1295 99bc
00000140: e25f cebc 7ff2 39bd 9d65 0e3d c30e 083d
00000150: 5273 f4bc dad8 f5bc 2390 ad3c 9b4d aebb
00000160: ebf8 c3bc e6fc 3fbd 2d05 2dbd 5f46 efbc
00000170: 0caa ccbc ee2f 3e3d d2e4 48bc d356 c93b
00000180: 5e90 a9bc ca26 c53b 7abb 5fbd 1cf8 083d
00000190: 2ecc 2dbd 1c8d cfbc 83e6 1f3d 8e9e 593d
000001a0: b1d8 523d 519b 06bc 629a 123c 2199 e03c
000001b0: cf46 17bb 4792 34bc bb37 a9bc 353a 323d
000001c0: 9c72 cdbc 8206 23bd b835 00bc f424 16b9
000001d0: 5d15 4fbb e847 8fbb 7c85 a8ba 764e 29bd
000001e0: 05bc 32bd eb1a 27bd b843 9cbc 6740 babc
000001f0: b2fc 7fbc 5b5c 27bd 9ccf 7f3c 7125 efba
00000200: d088 cb3c 50fa 383d 3ec9 133d 5e1f ba3b
00000210: 03cf d33c d883 3dbc e11d 1a3d 9941 8abc
00000220: 3ae6 1abd a3b2 19bb bb57 45bc 4d59 34bd
00000230: 3656 dbbc 80c4 03bd 8634 683b bd73 96ba
00000240: 7d42 d23c 00ba dabc 0a71 c2bc 964f a93b
00000250: 2f39 a53c 5581 a63c 1566 ef3c 00e7 0fbd
00000260: 9c56 e83c 004b a1bc c703 11bd 0c81 003b
00000270: 4208 c6bc d169 9b3c 606c b13c 25de 1bbd
00000280: 3fae 173d e581 b53c 1f01 87bb b6f8 123d
00000290: 90f7 0abd 4f22 103d dd01 5c3b 19ca b9bc
000002a0: 0e95 e53c c872 80bc 5129 31bc 5a2e c1bb
000002b0: bae2 a73c 1a2c 973c 677b fe3c 304e bdbc
000002c0: ac63 793b 2d85 a5bc e6a0 ffbb 5524 3cbd
000002d0: 50f4 13bd da34 d43c 0e06 47bd 3895 24bd
000002e0: 4150 32bd ede9 163d 3a16 75bc c161 b2bc
000002f0: 677f 12bd 942a 3c3d ed40 8e3c 0c95 b6bc
00000300: 50d3 a03c 1644 41bd 13c1 17bd 9ed2 3cbc
00000310: 3a00 39bd b996 fb3b 5503 cd3c efdf 603d
00000320: 64df 3ebc efa8 173c 0f55 3abc 02ac 19bd
00000330: 0e28 1a3d 87de 87bc 4724 213b f711 073d
00000340: 5f30 493c cd93 babc aaec dcbb fa21 58bc
00000350: 8d7d 9e3b d183 54bd 1b13 613c e4d1 dbbc
00000360: d8b7 023d b95f 30bb 7a79 40bd 1c88 5d3b
00000370: 89a2 323d b14a 2dbd 7f80 1e3d f2e5 cfbc
00000380: 85d9 09bd 32dc c3bc 3db4 d83c 363e 2abd
00000390: 053c 0eba 1abe 33bd 1e19 60bc 905e 153d
000003a0: 6589 d7bc 4d79 453d 3e5e 1ebd 64ce b4bb
000003b0: bb39 b63c 96cc c0bc 97b0 10bd 1e52 a73c
000003c0: 0c80 1cbd e64a 12bd 8050 e8bb 68fd 1c3c
000003d0: 271f dabc 2299 20bc 13ad 22bd 7cfe 083d
000003e0: df99 d03c b000 bbbc 99ef 263d 16e9 12bd
000003f0: 299c 0abd 00f0 4d3c 03c6 df3c 2c7b 17bc
0.008722519 0.027349954 0.022189101 -0.0145025095 -0.017929478 0.04128618 0.007063708 0.015694607
0.035011373 0.036480628 0.046924833 -0.047719833 0.002729669 0.035443954 0.0055862116 -0.020230785
-0.03744979 0.040681195 -0.053825825 0.0062035713 0.014889503 -0.0010888722 -0.034662172 0.0028708056
-0.031333994 -0.025659448 0.022113804 0.027941866 0.04787199 0.0064135813 -0.0060775666 0.012481805
0.034074444 -0.008180138 -0.010075698 -0.030924935 -0.034924116 -0.0007638286 -0.019113267 0.0071120844
-0.019417591 -0.043896556 0.023736816 0.027455337 0.025310671 -0.026796876 -0.0431173 0.045693077
0.044537008 -0.039355848 0.027508428 0.025199022 -0.032799445 0.049776617 0.011664468 -0.016102705
-0.0055374485 0.008655966 0.02274072 -0.009420202 0.017503226 0.041257925 -0.021978553 0.042177785
0.022584485 -0.0059137857 -0.033455387 -0.04062046 -0.012136881 0.048568264 -0.0077998023 -0.032243554
0.038755596 -0.019369371 -0.036508817 -0.04544432 -0.035411026 0.014415626 0.03284897 -0.01874784
-0.025192205 -0.045397278 0.034764875 0.033217203 -0.029840145 -0.03001063 0.021186894 -0.00531931
-0.023922404 -0.046872042 -0.042241264 -0.02920836 -0.024983428 0.046432428 -0.012261586 0.0061443835
-0.020698722 0.006016587 -0.05462215 0.03343974 -0.04243105 -0.02533584 0.039038192 0.053129725
0.051476184 -0.008215741 0.008947941 0.027416768 -0.0023082977 -0.011021203 -0.020656457 0.04351254
-0.025079064 -0.03980113 -0.007825308 -0.00014318881 -0.0031598427 -0.0043725856 -0.0012857164 -0.04133459
-0.04363634 -0.040797155 -0.01907526 -0.022735788 -0.015624212 -0.04085956 0.015613463 -0.0018245411
0.02484551 0.04516059 0.03608059 0.005680009 0.025855547 -0.0115670785 0.03762615 -0.016876983
-0.037817217 -0.0023452423 -0.012044842 -0.044030476 -0.026774507 -0.03216982 0.0035431697 -0.0011478584
0.02566647 -0.02670002 -0.023735542 0.005166958 0.020168869 0.020325342 0.029223481 -0.03513241
0.028361611 -0.019689083 -0.035403993 0.0019608168 -0.02417386 0.018971356 0.021658123 -0.03805365
0.03703141 0.022156665 -0.0041200067 0.03588172 -0.0339275 0.03518897 0.0033570447 -0.022679375
0.028025176 -0.015679732 -0.010813073 -0.005895418 0.020493854 0.018453646 0.031064702 -0.023108572
0.0038053794 -0.020205105 -0.007801163 -0.045933086 -0.036121666 0.025904108 -0.04858976 -0.04018137
-0.043533567 0.036844183 -0.0149589125 -0.021775128 -0.03576603 0.045939043 0.017364943 -0.022287868
0.019632012 -0.047184072 -0.037049364 -0.011524824 -0.04516623 0.0076778797 0.025026003 0.05490106
-0.01164994 0.0092565855 -0.011372819 -0.037517555 0.037635855 -0.016585601 0.0024588273 0.032976117
0.012279599 -0.022775555 -0.0067420797 -0.013191694 0.004836744 -0.051883522 0.013737465 -0.026833482
0.03191361 -0.0026912524 -0.04699085 0.0033803051 0.043612037 -0.04230756 0.038696762 -0.025378201
-0.03365471 -0.023908708 0.026453132 -0.041563235 -0.0005425814 -0.043882467 -0.013677863 0.036467135
-0.026310632 0.048211385 -0.038664095 -0.0055177677 0.022244325 -0.023535054 -0.03532466 0.020424899
-0.038208053 -0.03571596 -0.0070896745 0.009581901 -0.026626183 -0.009802135 -0.039715838 0.03344582
0.025463996 -0.022827476 0.040755842 -0.03586682 -0.033840332 0.0125694275 0.027316099 -0.009245675

layer2.0.bias f4 [32]
00000000: 305c 26bd 4d47 7bbc 94f5 d73c d359 f4bc
00000010: 1e5e 06bd 2e77 47bd 555a f2bc 5ee9 033d
00000020: 4b5c 0fbd d8d4 2c3d d520 403c 6aec 7ebb
00000030: 15df 10bc 5a7b ac3c 0b2d 1c3b 9f83 6d3b
00000040: 87d4 0dbc 5023 3f3d 29f5 37bd 081c 76ba
00000050: 1202 3cbd e814 0dbd 2aab 063d a6b2 d93c
00000060: dd30 b93c cce5 1b3d 4427 0f3d bbdb b13c
00000070: ee52 2ebd 8e52 34bd 95ba 14bd 5806 64bc
-0.04061526 -0.015336824 0.026362218 -0.029827988 -0.0328046 -0.048697643 -0.02958409 0.03220498
-0.035000127 0.04219517 0.011726578 -0.0038898238 -0.008842249 0.021054912 0.0023830559 0.0036241782
-0.0086566275 0.046664536 -0.044911537 -0.0009388332 -0.045900412 -0.034443766 0.03287808 0.026574444
0.022606308 0.03806095 0.034949556 0.021711221 -0.042559557 -0.044024043 -0.03631075 -0.013917528

layer2.1.weight f4 [32]
00000000: 8192 803f 5931 813f 964a 803f 6c3b 803f
00000010: 87cb 813f 066a 823f 6a79 813f 1d5e 803f
00000020: 13ad 813f 1c2e 813f 0508 823f e426 803f
00000030: 1102 833f ca26 823f 8bee 813f 0489 813f
00000040: f462 803f c057 803f 6590 803f 5553 813f
00000050: 26e0 813f 7aba 813f 97bf 803f d9bc 803f
00000060: c0be 803f a6e2 803f 4ae3 813f 9af7 803f
00000070: 8edb 813f ba2a 813f acc7 803f 54fa 823f
1.004471 1.0093185 1.0022762 1.0018134 1.0140237 1.0188606 1.0115178 1.0028721
1.0130943 1.0092196 1.0158697 1.0011868 1.0235006 1.0168087 1.0150923 1.0119939
1.0030198 1.0026779 1.0044066 1.0103556 1.014653 1.0135033 1.0058469 1.0057632
1.0058212 1.0069168 1.0147488 1.0075562 1.0145128 1.0091164 1.0060935 1.0232644

layer2.1.bias f4 [32]
00000000: 572e 1e3b a761 b03a 8ba4 133a 7baa 0eba
00000010: e7ac 013a 4c27 8eba 4f15 3a3a ee4d 903a
00000020: 03d7 8039 6ae0 d2b9 a61a e0b9 2c73 61ba
00000030: b6e3 383b 73e0 9f39 be43 85b9 74f4 b03a
00000040: 4fda a0ba 3a44 acb9 3276 3c3b b797 643a
00000050: c56b a73a dac8 5f3b ea7d 823a 0fb7 243a
00000060: bc17 6f3a 1f42 393a fc76 9b3a f674 8dba
00000070: c765 b83a 7e1a e639 edb5 d439 44ee 273a
0.0024136507 0.0013456837 0.0005632124 -0.00054422737 0.0004946724 -0.0010845452 0.0007098512 0.0011009553
0.0002457426 -0.00040221523 -0.00042744464 -0.0008600231 0.0028211898 0.0003049407 -0.0002541821 0.0013500587
-0.0012272092 -0.0003285723 0.0028756973 0.0008720117 0.0012773207 0.0034146816 0.0009955738 0.00062833814
0.0009120663 0.0007067043 0.0011861022 -0.0010792303 0.0014068418 0.00043888757 0.00040571336 0.0006406049

layer2.1.running_mean f4 [32]
00000000: 7b8b 4bbf a579 e9bc a561 273f 8837 efbe
00000010: 3b08 24bd 4529 d43d f314 8ebe 8bee 14bf
00000020: 52e9 9e3e f54f a53d 9cfd cb3e 45df a1be
00000030: ffe8 a5bd 4c13 e83d abad f33d 98b3 e93d
00000040: 2534 cabe a309 ae3b 93a4 29bf e673 1bbe
00000050: 9bdd 9b3e 5942 cebe a5ca 7f3e e07e b8be
00000060: 1412 c3be a17a f2bc 63a2 b53e db5e d43e
00000070: 9af2 373e cc8d 243e b7d2 36be fcb0 e03d
-0.79509705 -0.028500387 0.6538337 -0.46722054 -0.04004691 0.10359434 -0.27750358 -0.5817649
0.31037384 0.08071891 0.39841926 -0.31615654 -0.08101081 0.113318056 0.11898359 0.11411208
-0.39492908 0.0053112074 -0.66266745 -0.1518093 0.3044251 -0.40284994 0.24979647 -0.36034298
-0.3809973 -0.02959949 0.35475454 0.4147862 0.17963639 0.16069716 -0.17853819 0.10971257

layer2.1.running_var f4 [32]
00000000: 9b11 173f 5aa1 6f3e d6b9 ff3e 4b94 f93e
00000010: f989 723e d02c 6a3e ae7c f93e d274 323f
00000020: bfea bd3e 6c92 803e f7fa 743e c01d d73e
00000030: 5d0f be3e 9fc4 0e3e 2f72 043e d7a6 153e
00000040: ccbd 123f 5c2b 293e 2d9b eb3e 673d 4a3e
00000050: 3a50 7e3e 5964 9c3e b6b9 8a3e 13db 843e
00000060: 4614 c23e c01e 783e 307f 663e 0f45 6e3e
00000070: fb63 8d3e 3755 5f3e 02b3 a63e 47d3 0a3e
0.5901124 0.23401394 0.4994647 0.4874595 0.23685445 0.22868657 0.48727936 0.69709504
0.3709316 0.2511171 0.2392386 0.42014885 0.37121096 0.13942192 0.12934183 0.14614426
0.5732086 0.16520447 0.46016827 0.19749986 0.24835292 0.3054531 0.2709481 0.2594839
0.37906092 0.2423048 0.22509456 0.23268531 0.27615342 0.2180985 0.32558447 0.13557158

layer3.0.weight f4 [64, 32, 5, 5]
00000000: 70e0 923c 6c23 283b 7146 11bd 32e9 2c3b
00000010: 0204 723c b880 d2bc 0643 353b aecd 08bd
00000020: 3ee0 1c3c 8418 ce3b 20cb a83c 73ef c33c
00000030: 6b22 ac3c 1fad ce3c b1aa e7bb aab4 993c
00000040: 3508 373c e636 9ebc 732a a0bc e2b2 203c
00000050: deda 45bc 689a ef3b 22d8 08bd 0911 c9bc
00000060: 6c06 ea3c e92e 02bd 2803 98bc 3924 023d
00000070: ac23 e6bc 80ff 143d 865d e93c 347c 15bd
00000080: f920 1dbd 3166 543a b809 9dbb 1817 703c
00000090: ebec f13c 7c5d ffbc 9597 75bc 715d 13bd
000000a0: 0ad0 c9bc 9e88 bfbc 8544 ae3c 9894 d4bc
000000b0: 7dee 3f3c 0acd b5b9 eabd a6bc 164f f6bc
000000c0: d7fd 06bd 152f 17bd 64af a6bc bc9a a0bc
000000d0: 97c9 e3bc 90bb dabc f711 4c3a 63b4 dcba
000000e0: 1faf c7bc a63e ffbc 861e fe3c 2c68 98bb
000000f0: 7dad 91bc c806 ef3c e647 103c a68a 04bd
00000100: c4cb b9bb d1e3 ab3c 91ca 68bc 782d 643c
00000110: ac17 73bc 7ec5 0e3d 1e57 ab3c 2171 853b
00000120: 8b12 a53c f9f0 94bc 50f5 e4bc e295 043d
00000130: 427a ff3c 3d26 203a 0917 e63c 1d0d 0d3c
00000140: c889 a0bc bb08 08bb 4ee1 d73c 083c d9bb
00000150: 9cfe 57bc df60 0abd a816 ecbb a625 d93b
00000160: dccb 013d 6865 8fbc 7b5e 893c 4475 85bb
00000170: 944b 6b3c 111f f2bb c717 8d3c 7b9b 0f3c
00000180: 31c6 44bc 4dcd 523b b76d f7bc 21e0 b53c
00000190: a5d8 9b3c 2f67 db3c c748 3b3c d728 333c
000001a0: 27ac 053d b8c9 88bc 8e40 16bd 3512 b23c
000001b0: 6cde 633c 2c59 bebc 4c46 1a3d 3677 ea3c
000001c0: 97b9 7fba 864e 5abc 0b50 59bc cd7b f13b
000001d0: bd38 003d 1fa6 0b3d 2799 9d3c d7fa 063d
000001e0: 6ad4 be3a efa6 11bd 3bd6 c3bc 9f4d 2ebb
000001f0: a0fe 02bd 9c16 d33c 37de 523c c9d2 e4bc
00000200: 8452 10bc 98b3 1b3c e15e a9b9 dc0b de3b
00000210: d0aa ffbc 5811 1cbc 8bcc c33c 3e55 97bc
00000220: e986 8b3b 85a6 2dbc dd44 21bd 6d79 b23c
00000230: 0efb 60bc 6b83 ab3c d5fe 083d 5984 dbbb
00000240: 64c7 103d b2d7 b9bc 49db f5bc 75d7 933c
00000250: 4478 b1bc 4ae0 cabc 32aa 0ebd e9c9 36bc
00000260: 5d66 c13c 7162 06bd f5a3 123c 1e6b 24bc
00000270: 3ddf 59bc 4848 ddbc 2779 2dbc 4e8b 883c
00000280: b0c3 033a 2424 57bc d481 ca3c a286 94bc
00000290: 745e 13ba 13ad edbc c1ac a23c 309a a1bc
000002a0: 880e febc 3474 5a3c 91ec a23c f82d 29bc
000002b0: 82b0 4f3b ee2c d43c 6ee6 49bc 4d7d 96bc
000002c0: c32e 873c ff60 c3bc 73f7 9b3a 2e1b 1c3d
000002d0: ec9e 0abd 7b5b de39 c427 4ebc acea 08bd
000002e0: 4eff a5bc 3249 fdbb 0fdc 20bc de3d 283b
000002f0: a051 883c 3afc cabc 0cc0 03bd 65cd 7dbc
00000300: 81f4 a1bc 3453 03bd d45b edbc ae72 b63c
00000310: 3fe8 15bd 9260 3dbc 13d4 903b feb1 9fbc
00000320: 9977 eb3c 584c 773b dc3e 123d f10c 383c
00000330: a9d9 2d3c 692e b93c 065f 13bd e6c9 80bc
00000340: 29b4 febc b56d 153d 218f e3bc 0df0 aabc
00000350: 3180 80ba c744 aabb 98a3 453c 831d cc39
00000360: 1c4f 2f3d e000 8c3c bbc1 903c f4e5 853c
00000370: f3c7 a53c a7ad f63c d53e 213c 3bde 67bc
00000380: 436c b9bc d521 82bc 6c6b ecbc 3cd9 a6bc
00000390: 4417 a3bc c347 00bd 39a8 de3c 46b4 1b3c
000003a0: b771 b83c c11b df3c 7196 61bc 0dd5 efbc
000003b0: 2342 cabc d6b3 933c 89f1 933b 45e5 f0bc
000003c0: fa49 003d d272 813c d21c 0fbc f1a8 bebb
000003d0: df7c c5bc 1dc0 953c 2ee4 f4bc 13a8 d33c
000003e0: 0590 0fb9 28e7 e03c 5132 ef3b 274d 15bc
000003f0: d344 ac3a 5496 6fbb 294b a6ba f90e 0c3d
0.017929286 0.0025655879 -0.03546757 0.0026384112 0.014771463 -0.025696144 0.0027658357 -0.033399276
0.009574948 0.0062895436 0.02060467 0.02391789 0.021012506 0.025229035 -0.0070699085 0.018762905
0.01117139 -0.019313287 -0.019551491 0.009808274 -0.012076108 0.007312108 -0.033409245 -0.024544256
0.028567515 -0.03178302 -0.018556193 0.031772826 -0.028093182 0.036376476 0.028486978 -0.036495402
-0.038361523 0.0008102386 -0.0047924183 0.0146539435 0.029531917 -0.031172507 -0.014989753 -0.035977785
-0.024635334 -0.023380574 0.021272907 -0.025949761 0.011714575 -0.00034675776 -0.02035423 -0.030067008
-0.032956924 -0.036910135 -0.020347305 -0.019605033 -0.027806086 -0.026700765 0.00077846594 -0.0016838427
-0.024375496 -0.031157803 0.031020414 -0.00465109 -0.017782921 0.029178038 0.008806204 -0.032358788
-0.0056700427 0.020982655 -0.014208452 0.013926856 -0.014837187 0.034856312 0.020915564 0.004072324
0.020150444 -0.018181311 -0.027949005 0.032369502 0.031186227 0.00061092136 0.028087156 0.0086090835
-0.01959695 -0.0020757157 0.02635255 -0.0066294707 -0.013183262 -0.03378379 -0.0072048493 0.0066268025
0.031688556 -0.017504409 0.016768685 -0.004072817 0.014361281 -0.0073889573 0.017223252 0.008765097
-0.012010143 0.0032165826 -0.030203683 0.0222016 0.019024203 0.0267826 0.011430926 0.01093503
0.03263488 -0.01669775 -0.036682658 0.021737197 0.01390801 -0.02323588 0.037664697 0.028621297
-0.0009755133 -0.0133243855 -0.013263713 0.0073694945 0.03130411 0.034093972 0.019238068 0.032954063
0.0014559154 -0.03555959 -0.023905864 -0.0026596559 -0.03198111 0.025767617 0.012870363 -0.027932541
-0.008808736 0.009503268 -0.00032304882 0.006776316 -0.03120938 -0.009525619 0.023901245 -0.018473264
0.004258026 -0.010598783 -0.039372314 0.021786416 -0.013731731 0.020936688 0.03344615 -0.0066991267
0.035346404 -0.02268586 -0.03001179 0.018047074 -0.021663792 -0.024765152 -0.03483028 -0.011156538
0.02360838 -0.032808725 0.008950223 -0.010035304 -0.013297853 -0.027012005 -0.010587967 0.016667988
0.0005026413 -0.013131175 0.02472011 -0.018130604 -0.00056216796 -0.029013192 0.019857766 -0.019726843
-0.031012788 0.013333369 0.019888194 -0.010325901 0.00316909 0.02590033 -0.012323005 -0.018370295
0.01650179 -0.023849962 0.0011899307 0.038111858 -0.033842966 0.00042411298 -0.012582723 -0.033426926
-0.02026334 -0.007729673 -0.009818091 0.0025671641 0.016640484 -0.024778474 -0.032165572 -0.015490864
-0.019769909 -0.03206177 -0.028974451 0.02227148 -0.03659844 -0.011558669 0.0044198125 -0.019494053
0.028743552 0.0037734713 0.03570448 0.011233554 0.010610976 0.022605138 -0.035979293 -0.015721273
-0.031091766 0.036481578 -0.02777821 -0.020866418 -0.0009803829 -0.005196187 0.01206293 0.000389319
0.042800054 0.017090261 0.017670503 0.016345002 0.020236945 0.0301121 0.0098416405 -0.014152105
-0.022634631 -0.015885273 -0.028859816 -0.020367257 -0.019908555 -0.031318437 0.027179824 0.00950343
0.022515161 0.027234914 -0.013768778 -0.029276395 -0.02468974 0.018030088 0.004514877 -0.0294062
0.03132055 0.01580182 -0.008734899 -0.005818479 -0.024107395 0.018280083 -0.02989396 0.02583698
-0.00013691194 0.027453974 0.0072996994 -0.009112633 0.001314307 -0.0036558108 -0.0012687194 0.034193967

layer3.0.bias f4 [64]
00000000: f695 a83b 3014 c13c fa44 fa3a e72f f83c
00000010: 98c4 883b 8b41 093d 68c0 3a3c fe74 99bb
00000020: bb40 0ebd b477 5dbb 8213 673c b3d5 0f3d
00000030: 92d6 693c eb6e dd3c fd99 0bbc c7cd 35bc
00000040: 317a 67bb 98a4 c4bc e855 6a3c 2b49 b53c
00000050: c8c5 ed3c b3b0 433c 829d dbbc ce13 07bd
00000060: b96a 0b3c 957e a2bc cd91 ad3b 4049 55bc
00000070: 1ff2 f8bc 6fde edbc e59a bb3c d25e 94bc
00000080: eb35 fa3c 24e5 03bd 408f 45bb e244 723c
00000090: 040d 25bc 82b0 4cbc 6d9e 85ba 3d22 173c
000000a0: bd14 a9bc aa70 d7bb 06a8 d1bb f7ff e83b
000000b0: 9cd4 cfbc d839 a9bb b811 00bd 71e0 88bc
000000c0: 0fb3 04bd 2332 89bc be50 0a3d 95f2 06bd
000000d0: 7703 0d3d 5524 883c bff2 a03c f76a 113c
000000e0: 3d99 70bc 5a3c 21bc 6940 01bb 7d49 31bc
000000f0: 49b6 e63c e81d 003d 7b09 00bc 551e 97bc
0.00514483 0.023569196 0.0019094043 0.03029628 0.0041738264 0.033509772 0.011398412 -0.004683136
-0.0347297 -0.0033793272 0.014103772 0.03511591 0.014272349 0.027030429 -0.0085206 -0.011096424
-0.0035320634 -0.024004266 0.014302708 0.022129616 0.029024974 0.011943984 -0.026808504 -0.03297787
0.008509331 -0.01983575 0.005296922 -0.013017952 -0.03038889 -0.029036729 0.022901008 -0.01811162
0.030543288 -0.032200947 -0.0030145198 0.014786931 -0.010073904 -0.012493255 -0.0010194309 0.009224472
-0.020639772 -0.00657471 -0.006398204 0.0071105915 -0.025369935 -0.005164366 -0.031266898 -0.016708585
-0.032397326 -0.01674754 0.033768408 -0.032946188 0.034427132 0.016618887 0.019647 0.0088756
-0.014684972 -0.009841049 -0.001972223 -0.010820744 0.028163092 0.03127852 -0.00781476 -0.01844708

layer3.1.weight f4 [64]
00000000: 73be 803f 24c4 803f 5032 813f 1937 803f
00000010: 13c9 803f 9913 813f bcbf 813f 6f9b 803f
00000020: 4109 813f 6f64 803f 604c 813f 7c45 813f
00000030: d975 813f 26ae 803f 7535 813f 039e 803f
00000040: 29ad 813f 8543 803f 3c94 803f ccb3 803f
00000050: 328d 803f 245b 813f 1c84 803f 8810 803f
00000060: e2b9 803f 3076 803f 80ec 803f 21c9 803f
00000070: 24e3 803f 239b 803f 9389 803f a51b 813f
00000080: 2a7d 803f 7c43 803f ba81 803f 78cb 803f
00000090: b977 813f d539 813f 0b1a 813f b678 813f
000000a0: 26b0 803f add3 803f 9515 813f 401c 813f
000000b0: 35c1 803f 68e4 7f3f ac14 813f a17b 803f
000000c0: 3265 813f c2bc 803f 561b 813f 230e 803f
000000d0: eb91 813f 4728 813f c34a 803f 995a 803f
000000e0: 9d87 803f a797 803f 0462 813f 6815 813f
000000f0: a09c 803f cfc6 803f 5035 813f 96c4 803f
1.005812 1.0059857 1.0093479 1.0016814 1.0061363 1.0084106 1.0136638 1.0047435
1.0080949 1.003065 1.0101433 1.009933 1.0114089 1.0053146 1.0094439 1.0048221
1.0130969 1.0020605 1.0045238 1.005487 1.0043089 1.0105939 1.0040317 1.0005045
1.0056727 1.0036068 1.0072174 1.006138 1.0069318 1.0047344 1.0041984 1.0086561
1.0038197 1.0020595 1.003959 1.0062094 1.0114661 1.0095774 1.0086073 1.0114963
1.0053756 1.0064598 1.0084711 1.0086746 1.0058962 0.99957895 1.0084434 1.0037729
1.0109007 1.0057604 1.0086467 1.0004314 1.0122656 1.0090417 1.0022815 1.0027648
1.0041386 1.0046281 1.0108037 1.0084658 1.0047798 1.0060672 1.0094395 1.0059993

layer3.1.bias f4 [64]
00000000: ffba 6b3a 29c3 83b9 af45 0a39 c338 87ba
00000010: da0e 5239 c11b b5b8 b9f8 b839 769a 6839
00000020: 836c f939 aa49 a83a 942d bb3a 0301 713a
00000030: b3db e039 c3be 4cb9 12cc 3db9 e0c2 e239
00000040: ee38 ba3a ef1e 4839 2e06 4139 ec04 6a39
00000050: f3fa ef39 a1bb bd37 f2d7 d039 08ae 89b9
00000060: d151 513a d49e 24b9 509e 223a 7e2c 17b9
00000070: d9d6 05b9 28d0 a73a 560a 6e3a ec0e f438
00000080: d022 0e3a 56b5 fd37 ccf9 e1b9 aac3 0f3a
00000090: 50cc d339 00fc e53a c320 5539 5697 8f3a
000000a0: 8897 323a e7e6 a339 471b 4739 3959 973a
000000b0: 19c1 b639 1641 8cba e9c7 3d39 66d1 d339
000000c0: df9f b639 4230 0439 f7a9 09b9 9b68 2739
000000d0: 6716 173a a45d b5b6 48bd 7339 94f9 ba39
000000e0: 297f cb39 28db 5439 56de 043a fbeb 143a
000000f0: b05f 173a 91fd f439 7a03 c339 8f2c 2c3a
0.0008992403 -0.00025131673 0.00013186665 -0.0010316599 0.00020032693 -8.635922e-05 0.00035280528 0.00022182785
0.00047573828 0.0012839336 0.0014280551 0.0009193571 0.00042888298 -0.0001952602 -0.00018100467 0.00043251272
0.001420764 0.0001908501 0.00018408216 0.00022317813 0.00045772604 2.2617927e-05 0.00039833743 -0.0002626034
0.0007984909 -0.00015699427 0.00062034 -0.00014417057 -0.00012763905 0.0012803124 0.00090805197 0.00011637606
0.00054220576 3.0244391e-05 -0.00043101457 0.00054841733 0.0004039728 0.0017546415 0.00020325468 0.0010955136
0.0006812741 0.00031261818 0.0001898828 0.0011546976 0.00034857614 -0.001070055 0.00018098917 0.0004040107
0.00034832858 0.00012606478 -0.00013128655 0.0001596533 0.0005763531 -5.4051216e-06 0.00023244799 0.00035662635
0.0003881392 0.00020299538 0.0005068531 0.0005680916 0.00057744514 0.00046728228 0.0003719589 0.0006567919

layer3.1.running_mean f4 [64]
00000000: d079 e0be e68f fd3e a568 773e ed2c d73e
00000010: 566f b8be cc6d 903e 8ddb a43e f6c7 903e
00000020: 1cb4 c23d e323 633c 1995 68be 0439 babd
00000030: 32f3 883d a9a3 9d3e f578 843c 9dc8 69be
00000040: 3ff6 b0be 2381 433c ad43 383e 9ab9 c5be
00000050: d20d 8dbe 2ef7 b33d 70e8 7d3e 5bdc 7abf
00000060: 6998 443e 82b6 a9bd e7d1 9d3e 9c5a f23e
00000070: 88b7 8abc 65bc 23be 758f 253e 44de 10bd
00000080: 05be f8bd 0920 b43c 14e6 25bf 74e7 933e
00000090: 668b 333e bc0c 0ebf 323d 2abe 0b29 833d
000000a0: 2794 ad3d 65c4 eebc a03a 823e 1dc0 3abe
000000b0: 3910 8e3e 80d8 21bf df00 343e e9f9 abbd
000000c0: 5b2b 093e edf8 3a3d c22e 9d3d ed49 20bf
000000d0: d436 a83e 23fd 6a3e 5dd0 43be 39f4 513d
000000e0: ca82 43bd 391f eb3c 518f d03d 5a2b 4bbe
000000f0: 2e8c 4bbe 058d 19be 87cc 233f f6ea 03be
-0.43842936 0.49523848 0.24161012 0.42026463 -0.36022443 0.28208768 0.32198754 0.28277558
0.095070094 0.0138635365 -0.22713126 -0.09092906 0.06687011 0.30788925 0.016170958 -0.22830434
-0.3456287 0.011932644 0.17994566 -0.38618165 -0.27549607 0.0878738 0.24795699 -0.97992486
0.19198765 -0.08286764 0.30824205 0.47334754 -0.016933218 -0.15989836 0.16168006 -0.03536822
-0.12145618 0.021987932 -0.64804196 0.28887522 0.17533645 -0.5548818 -0.16624907 0.06404313
0.084755234 -0.029146383 0.25435352 -0.18237348 0.27746752 -0.6322098 0.17578457 -0.08397276
0.13395445 0.04564755 0.07674934 -0.626128 0.3285433 0.22948126 -0.19122453 0.0512583
-0.047732152 0.028701412 0.101835854 -0.19840756 -0.19877693 -0.14995201 0.6398396 -0.12882599

layer3.1.running_var f4 [64]
00000000: 777a 333e 186f 193e aebc e53d bbb1 713e
00000010: 30b2 073e 9842 063e 5bc8 fe3d 73c3 df3d
00000020: 0f99 243e ee4e 3b3e e4e6 183e ce61 ec3d
00000030: ed76 eb3d f70d fa3d 3175 1d3e 9ac1 253e
00000040: d024 153e dd55 dd3e 0ca9 1d3e 35ec 023e
00000050: 2c60 1e3e 75fc fd3d 0b5e 583e b653 a23e
00000060: b3ca 893e 3ce6 313e 379c 153e 7d5a 4b3e
00000070: a26c 333e 1628 6b3e abc7 263e 0d8b 083e
00000080: 0c17 523e 48b7 3c3e 72d2 2b3e 33c3 1c3e
00000090: 2ebb 083e 7571 183e 4a3a 383e 655d df3d
000000a0: e658 243e 18a1 3e3e e1df d03d 71e7 0c3e
000000b0: fb0b 3b3e 4ca0 833e a41c dc3d d77b 413e
000000c0: 1420 ef3d eb19 dd3d 4d51 c63d aa55 d63e
000000d0: 555c cf3d 2ff4 2e3e 99bb 933e b407 093e
000000e0: 827f 9b3e ecea ea3d 8e73 003e d1b5 1b3e
000000f0: 0482 d33d 4a43 0f3e d592 3d3e 5d33 033e
0.17527185 0.14983785 0.112176284 0.23602955 0.13251567 0.13111341 0.124405585 0.10925951
0.16074012 0.18291828 0.14931828 0.11542092 0.11497293 0.12209695 0.15376736 0.16187134
0.14564824 0.4322957 0.15396518 0.12785418 0.15466374 0.12401668 0.21129625 0.3170449
0.2691246 0.17372984 0.14610372 0.19858737 0.17521909 0.2296451 0.16287105 0.13334294
0.20516604 0.18429291 0.16779497 0.15308838 0.13352653 0.1488703 0.17990986 0.109064855
0.16049537 0.1861614 0.101989515 0.13760163 0.18266289 0.25708234 0.1074765 0.18894897
0.1167604 0.10795959 0.09683476 0.41862231 0.10125033 0.17085336 0.28854063 0.13381845
0.30370718 0.11470589 0.1254408 0.15206076 0.10327533 0.13990512 0.18513043 0.12812562

fc.weight f4 [10, 576]
00000000: 6f86 e33c 1190 793a b520 ad3c 2081 b53c
00000010: caf6 463c 4d53 fcbb f4a5 0dbd 7243 24bd
00000020: a2ab 2f3c 7ff2 653c c0c9 ecbc 058e ba3c
00000030: 1a8d e33c 1563 993c 634d ab3b 9c4d 3abd
00000040: 3367 1d3d 4ae9 333d 8629 293d 00d4 323d
00000050: c7fd 06bd 1d8e 103d 7303 6d3c 9461 573c
00000060: a9f3 18bd c868 353d c59d 953b 3ffe 133d
00000070: bbf8 283d 6c00 5d3d 193a 0e3d e633 1bbc
00000080: 2897 ca3b ac3a 9abc 6850 963c 00f0 d93c
00000090: 5969 8c37 460d 823c 5e35 2cba c669 383c
000000a0: 09e1 2fbd ee52 f83c b586 febc 4444 463c
000000b0: 9d90 103c 05db 08bd 3c81 c4bc db29 e73c
000000c0: a859 953c 7b05 feba 8a2c 2ebd 342c 52bc
000000d0: a8ac 8f3c 837e d43c 4a50 123c 1c38 da3c
000000e0: 607a b23c 62c8 07bd 52c0 013d 1e8e 34bd
000000f0: 9e72 393c 14ae 3f3d 2e51 e43c 9754 0fbc
00000100: 3583 93bc b30a ab3c a728 cebc 9d2a bcbc
00000110: 63e1 f43c c24f 2abd c77f 0ebd 7d54 0fbd
00000120: a31e ed3c 63c1 f1b9 9b85 01bd 37c8 72bc
00000130: bd95 0a3c 681e 1bbd 0a3a a2bc 10ae f63c
00000140: bca3 2ebd 5d39 9bbb a467 2e3d af98 2bbd
00000150: b56d 90bc 6220 743c 7be5 1cbd fe60 32bc
00000160: e9a4 51bd f732 6bbc 4d12 04bd 308e 1abd
00000170: 060f 063d f4b7 243c 451a d4bc 39df 16bd
00000180: f05e c33c 892d 28bd 28b6 1b3d f471 92bc
00000190: 36f3 48bb deb4 2fbc f361 f03c 36f3 503c
000001a0: 9ad4 0ebd 6910 35bd ea4e 5fbd ac65 ca3c
000001b0: 3144 b73c 041d e0bc 7567 103c cb60 18bc
000001c0: 5dc5 d0bc 9385 2ebd b970 01bd 5adf 4a3c
000001d0: 2e29 e4b9 502c 173c 8068 993c 339f af3b
000001e0: ec76 d1bc 3263 cf3c ddd2 383c e4a3 02bd
000001f0: cfbb 2ebc 52db f1bc 4db5 2abd 4929 fbb9
00000200: 2fff 093d 5eaf 2ebd 7cf0 2abd 1385 7e3c
00000210: d657 8539 ff14 273d f060 e9ba d58b aa3c
00000220: bca0 223d 19b0 9f3c 569c 873c ef1d b0bc
00000230: 9125 d6bc 4168 7ebc 29d7 d73b 2667 a7bc
00000240: 8e17 61bc 1dd4 e8bc 6891 bf3c cf39 cfbc
00000250: 1bd0 25bd c907 3d3d 4d7c 3abc e0c9 6abc
00000260: 5084 303d c7c0 1e3d 4e5a 263d 1ef8 fa3c
00000270: 9cc4 91bc ac82 56bc 2d12 11bd 3c15 083d
00000280: 1276 5cbc 993d 18bd 5e31 9d39 e846 0cbd
00000290: b1db 913c 77f7 c63c c076 dd3c 15a6 87bb
000002a0: adb6 153b d6d5 063c 42bb 2c3d 7614 393c
000002b0: 0220 17bd 6c01 673c ca5f 013c c2a0 11bd
000002c0: 5a79 7c3c b379 3bbd 67c9 453b a5e9 103d
000002d0: 5560 0fbc 63f3 e23c 4a92 993b 7050 203d
000002e0: 877d abbc 1bfc 323d 0014 1cbd 9311 c53c
000002f0: 0777 b0bc 17a0 da3c e2dc 0ebd 2bfe d73c
00000300: 22dc 493d 06f1 5ebd 829d 293d 9fb9 213c
00000310: 7323 2bbd 6ffb 5e3c 0460 803a cf21 d1bb
00000320: 2f5c 113c 9277 b83c 0569 23bd d8a9 013d
00000330: 676b be3c 32a8 b63c 81cd 1cbd 8dd2 95ba
00000340: 9055 053d 20d1 fdbc d67f c63c 2b1c 973c
00000350: 76f3 753c 9136 163d b4c6 12bb 98b2 ecbc
00000360: 032a 1cbb 52e9 c3bc 13d9 0ebc 699f 1d3d
00000370: b61c 30bd 56c5 f4ba 4a2e fc3c 7aa8 6ebc
00000380: 5369 3c3d 03a6 14bb d5a0 77bb d4bc 433b
00000390: 29ac e23c 6eac b73c ed28 b33c b5f0 a13c
000003a0: e7dd d63c 8b34 3dbc d736 a83c ef59 353c
000003b0: a4ef f53b 398b 54bd 84a1 b9b8 b618 9d3c
000003c0: b090 513d 69b5 2cbc dcbb 4e3c 11e4 bfbc
000003d0: 4a6a 753b 4fa1 433d 3ce1 1bbd 89e4 f3bb
000003e0: 245d 4fbc e110 1ebc e32c cd3c 8cb5 f93c
000003f0: 261c 983c 8c01 22bd 71e0 a03c a019 01bd
0.027774064 0.0009520064 0.02113376 0.022156298 0.0121438 -0.00770036 -0.034582093 -0.040103383
0.010722073 0.014034866 -0.028904796 0.022772798 0.027777243 0.018724004 0.005227731 -0.04548417
0.038428497 0.043923654 0.041299365 0.04365921 -0.032956865 0.03529178 0.014466154 0.013145823
-0.037341747 0.04428938 0.0045659267 0.03613114 0.041252833 0.05395548 0.034723375 -0.009472823
0.00618257 -0.018826805 0.018348888 0.026603699 1.6738357e-05 0.01587547 -0.00065692316 0.011255687
-0.04293922 0.030312981 -0.031070093 0.012101237 0.008823541 -0.033412 -0.023987405 0.0282182
0.018231228 -0.0019380295 -0.042522945 -0.012827922 0.017538384 0.025939232 0.008930275 0.026638083
0.021786869 -0.033150084 0.03167755 -0.044080846 0.011318831 0.046796873 0.02787074 -0.008748195
-0.0180069 0.020879125 -0.025165869 -0.022969538 0.029892629 -0.04157997 -0.034789827 -0.034992684
0.028945273 -0.00046111186 -0.031621557 -0.014818243 0.008458552 -0.037870795 -0.019803066 0.030112296
-0.042636618 -0.004737063 0.04257931 -0.041893657 -0.017630437 0.014900299 -0.038304787 -0.010887383
-0.05118266 -0.014355413 -0.032244015 -0.037733257 0.03272917 0.0100536235 -0.025891433 -0.036833975
0.02384898 -0.04105905 0.038015515 -0.017876603 -0.0030662543 -0.010724274 0.02934358 0.0127532985
-0.03487072 -0.044205103 -0.054518618 0.024706684 0.022371383 -0.027357586 0.008813729 -0.009300421
-0.025484735 -0.042607855 -0.03160164 0.012382353 -0.0004351823 0.0092268735 0.018726587 0.005359554
-0.025569402 0.025315855 0.0112807425 -0.03189458 -0.010664894 -0.029523525 -0.04167681 -0.0004790521
0.033690628 -0.042647712 -0.04173325 0.015534657 0.0002543318 0.040791508 -0.0017805379 0.02081863
0.03970407 0.01949315 0.016554039 -0.021498648 -0.02614096 -0.015527786 0.0065869284 -0.020434927
-0.013738526 -0.028421456 0.023384765 -0.02529612 -0.040481668 0.046150003 -0.011382175 -0.014330357
0.043094933 0.038758066 0.040613465 0.03063589 -0.017793946 -0.013092678 -0.035417724 0.033223376
-0.0134558845 -0.03716812 0.00029982155 -0.03424731 0.017804952 0.024287922 0.027034163 -0.0041396716
0.002284448 0.008229693 0.04217077 0.011296382 -0.03689576 0.01409946 0.007896373 -0.0355537
0.015409792 -0.04577036 0.003017986 0.03537907 -0.008750995 0.027703946 0.0046866285 0.03913921
-0.02093388 0.043697458 -0.03810501 0.024056232 -0.021541132 0.026687665 -0.03487862 0.026366314
0.0492822 -0.054429077 0.041409977 0.009870916 -0.041781854 0.013609751 0.000979424 -0.006382204
0.008872076 0.022517953 -0.039895076 0.031656116 0.023244573 0.022296999 -0.03828192 -0.0011430547
0.032552302 -0.030983508 0.024230879 0.018446049 0.015011659 0.036673132 -0.0022396268 -0.028893754
-0.0023828752 -0.023914967 -0.008718747 0.038482103 -0.04299613 -0.0018674533 0.030783791 -0.014566535
0.045998883 -0.0022681959 -0.0037785072 0.002986719 0.027669983 0.022421088 0.0218701 0.019768098
0.026228858 -0.011548172 0.020533962 0.011068805 0.007505374 -0.051890586 -8.851572e-05 0.019176822
0.051163375 -0.010541298 0.012618031 -0.02342418 0.0037447386 0.047761258 -0.038056597 -0.007443015
-0.012656484 -0.009647579 0.025045818 0.030482076 0.01856811 -0.039552256 0.019638272 -0.03151858

fc.bias f4 [10]
00000000: c81e b9bc 5c93 7e3c 4939 d3bc c8a2 9038
00000010: b591 b1bc 7c31 b13c 356b 783c 2f31 01bd
00000020: 2049 e3bc 6894 bcbc
-0.022597685 0.015538063 -0.025784152 6.8967754e-05 -0.021675924 0.021630041 0.015162279 -0.031541046
-0.02774483 -0.023019984
